spinal_saenet_best.pth (torch, 51716 bytes, 8 tensors)

encoder.0.weight f4 [128, 11]
0.12213291 0.03256799 -0.012774435 0.085046835 -0.0668852 -0.21154135 0.15846747 0.055751834
0.25967243 -0.17444207 0.08418482 -0.0046338052 -0.0047332104 -0.0056008883 -0.0030575597 -0.0045753717
-0.066037744 -0.04573071 0.003992549 0.12355055 -0.00035507747 0.30162603 -0.0030549115 0.0128441285
0.012606404 0.003680017 0.18646187 0.00012544081 -0.00023391808 -0.0030205336 -0.00010303858 -0.0019575579
-0.4825785 -0.0023690094 0.08244471 0.080654085 0.07062916 0.01110448 -0.00045119927 0.0012904551
-0.0048211 -0.0013449095 0.0010484462 0.64274645 -0.06642531 0.02382068 -0.015271462 0.015455888
0.24312718 0.0016924406 0.0019826835 0.016816178 0.0006067696 0.00066199695 -0.50389785 0.006962283
-0.016279975 -0.032944046 0.008313415 -0.05190206 0.031749092 0.020943755 0.00041222404 0.41426516
-0.07610844 0.19039337 -0.027847892 -0.026802383 -0.020777246 0.0018819197 -0.120280206 0.08413075
0.0050770217 -0.027782409 -0.17930382 0.27170575 0.30055448 -0.03064123 -0.031561367 -0.024790674
-0.009442553 -0.1503248 0.0806084 0.0107250465 -0.015874285 -0.19864574 0.3076447 0.32210395
0.03204225 0.047493868 0.039492656 0.06557214 0.08897066 0.00012646204 -0.00059047475 -0.012394621
-0.033070046 -0.113545306 0.7754335 0.0425597 0.02773184 0.009784973 0.04610739 -0.018489748
-0.083282955 -0.028307542 0.03494708 0.34541586 -0.16863273 0.050159443 0.057319913 0.03363685
0.016524302 0.051340293 0.0007677585 -0.0026427791 -0.0043358533 -0.005009287 -0.11685828 -0.41975197
-0.13654377 0.048942767 -0.0067782146 -0.021312434 -0.0053397142 0.09631738 0.047590856 0.020818781
0.16279303 0.01296773 0.0855566 -0.3943231 0.02845037 0.0049122632 0.009600611 -0.0011885618
-0.13098337 -0.14216341 -0.0045972583 -0.009714774 -0.18284045 0.25670522 -0.08703138 -0.113083795
-0.008977325 0.007204989 -0.0037980352 -0.017056959 0.0040980005 0.049017515 0.019029865 -0.14505807
-0.02284214 0.031420603 0.033184387 0.05180139 0.042564068 0.071126014 0.06574014 -0.00011161834
-0.00040298866 -0.011407921 -0.02248166 -0.07112801 0.7268532 0.030836938 0.005196823 0.0060477853
0.0027804505 -0.014232128 0.021866111 -0.011909643 0.042926762 -0.054693945 0.08354042 -0.37848455
-0.078986295 0.09613468 0.11890664 0.028409105 -0.017288817 -0.12941062 -0.14603311 0.100969374
0.19329996 -0.09929507 0.20528415 0.0071470845 -0.0027473792 -0.0032020633 -0.0017307298 0.08760169
-0.019039957 -0.0021536164 -0.0021468569 -0.010106796 0.08771179 -0.2717638 -0.06909738 -0.0021014218
0.0032013347 -0.00774487 -0.16138351 0.06685003 0.0057502715 -0.013191127 -0.19030584 0.26486108
0.31003925 0.12827115 0.035173386 0.03860522 0.027712017 0.013303894 -0.0040934808 -0.008944462
-0.025599875 -0.08993891 -0.32636085 -0.32679537 0.013451912 -0.03125679 -0.04630702 0.0063763605
-0.0033995104 0.058506165 0.028569445 -0.02240854 0.40952438 -0.11054664 0.1199897 -0.099846125
0.05442431 0.03849898 0.022514705 -0.0080936765 -0.11634269 -0.13948205 0.066314615 0.1825147
-0.09348316 0.19541581 -0.038747746 -0.007945813 -0.016841184 0.0019825809 0.068017125 0.17654476
0.015210986 -0.009999216 0.051189214 0.26408428 -0.06916955 -0.0331777 -0.010232143 -0.021945534
00000000: d220 fa3d 0366 053d dd4b 51bc 092d ae3d
00000010: 1cfb 88bd 4c9e 58be 4c45 223e 095c 643d
00000020: c9f3 843e f1a0 32be 1769 ac3d 2dd7 97bb
00000030: 0c19 9bbb a887 b7bb 5761 48bb 00ed 95bb
00000040: cc3e 87bd 2050 3bbd eed3 823b 1208 fd3d
00000050: b129 bab9 ba6e 9a3e e934 48bb 2e70 523c
00000060: 178b 4e3c 712c 713b dcef 3e3e c388 0339
00000070: e847 75b9 25f4 45bb 6b16 d8b8 5f4a 00bb
00000080: 8714 f7be 6241 1bbb c6d8 a83d f82d a53d
00000090: 05a6 903d 91ef 353c f18e ecb9 7d24 a93a
000000a0: 51fa 9dbb ad47 b0ba 046c 893a 088b 243f
000000b0: fe09 88bd 9623 c33c 2735 7abc b13a 7d3c
000000c0: 55f6 783e e2d4 dd3a e9ef 013b 15c2 893c
000000d0: 9e0f 1f3a dd89 2d3a 73ff 00bf dd23 e43b
000000e0: 955d 85bc 56f0 06bd fd34 083c 4197 54bd
000000f0: 560b 023d 3d92 ab3c c61f d839 901a d43e
00000100: bede 9bbd 7bf6 423e 4321 e4bc ac90 dbbc
00000110: 0b35 aabc bfaa f63a 7855 f6bd be4c ac3d
00000120: 255d a63b ef97 e3bc 6c9b 37be 041d 8b3e
00000130: 47e2 993e 5103 fbbc 7e46 01bd d015 cbbc
00000140: f0b4 1abc bfee 19be 0416 a53d 1bb8 2f3c
00000150: ca0a 82bc ca69 4bbe 9b83 9d3e cfea a43e
00000160: bc3e 033d ee88 423d 0dc3 213d b04a 863d
00000170: 4036 b63d e59a 0439 17ca 1aba cf12 4bbc
00000180: 7574 07bd 718a e8bd cf82 463f 1453 2e3d
00000190: e22d e33c 2751 203c 1adb 3c3d d077 97bc
000001a0: 4190 aabd 38e5 e7bc ab24 0f3d 59da b03e
000001b0: 0fae 2cbe fd73 4d3d 49c8 6a3d cbc6 093d
000001c0: f95d 873c 334a 523d 6743 493a 7a32 2dbb
000001d0: c613 8ebb f224 a4bb 6553 efbd bbe9 d6be
000001e0: 21d2 0bbe 3678 483d c91b debb 6a97 aebc
000001f0: c5f8 aebb 0c42 c53d a1ee 423d 268c aa3c
00000200: 37b3 263e 9a76 543c 4c38 af3d b8e4 c9be
00000210: c010 e93c 0df7 a03b e24b 1d3c 84c9 9bba
00000220: 8120 06be 4993 11be 99a4 96bb b72a 1fbc
00000230: 873a 3bbe de6e 833e 823d b2bd 7a98 e7bd
00000240: a115 13bc d417 ec3b 75e8 78bb 09bb 8bbc
00000250: 8548 863b 97c6 483d 85e4 9b3c 1a8a 14be
00000260: 711f bbbc e4b2 003d 5aec 073d b22d 543d
00000270: a957 2e3d 84aa 913d c4a2 863d a414 eab8
00000280: 3948 d3b9 4ae8 3abc 752b b8bc 90ab 91bd
00000290: 0d13 3a3f bf9d fc3c 1c4a aa3b 802c c63b
000002a0: 3838 363b df2d 69bc 8f20 b33c aa20 43bc
000002b0: f9d3 2f3d c206 60bd 3d17 ab3d bac8 c1be
000002c0: 91c3 a1bd 42e2 c43d 5385 f33d 36ba e83c
000002d0: 47a1 8dbc 3884 04be b489 15be 08c9 ce3d
000002e0: 6df0 453e 375b cbbd 0236 523e 1732 ea3b
000002f0: 600d 34bb b5d9 51bb a8d9 e2ba 8468 b33d
00000300: aff9 9bbc b023 0dbb 48b2 0cbb fa96 25bc
00000310: 3da2 b33d a024 8bbe ed82 8dbd 02b8 09bb
00000320: 7ccd 513b aec8 fdbb b841 25be abe8 883d
00000330: c66c bc3b 991f 58bc 89df 42be df9b 873e
00000340: 77bd 9e3e 8359 033e f811 103d 8220 1e3d
00000350: 5004 e33c 93f8 593c 9b22 86bb cb8b 12bc
00000360: d4b6 d1bc e431 b8bd c518 a7be b951 a7be
00000370: 6965 5c3c 1f07 00bd 6eac 3dbd caf0 d03b
00000380: 52ca 5ebb 29a4 6f3d 780a ea3c 1d92 b7bc
00000390: 2ead d13e 4766 e2bd 29bd f53d 207c ccbd
000003a0: 06ec 5e3d 1bb1 1d3d c270 b83c 579b 04bc
000003b0: 1445 eebd 62d4 0ebe f5cf 873d 22e5 3a3e
000003c0: 1974 bfbd 151b 483e f5b5 1ebd 282f 02bc
000003d0: 86f6 89bc 30ee 013b 904c 8b3d 26c8 343e
000003e0: 8037 793c c0d3 23bc c8ab 513d 0e36 873e
000003f0: c4a8 8dbd 57e5 07bd b8a4 27bc 1fc7 b3bc

encoder.0.bias f4 [128]
-0.08185212 0.056134645 0.18103571 -0.18907925 0.1943376 0.056167573 -0.17278855 -0.1567427
-0.3319329 -0.16762365 -0.37460282 0.06968661 -0.1506829 0.0034589279 -0.2765421 -0.0068857237
0.037219606 0.071540385 -0.1760252 -0.22659267 -0.008938845 0.051640034 0.06181356 0.12167677
0.031601347 -0.16492419 0.012046825 0.08659316 0.10373116 0.026413804 0.10731666 0.13535047
0.17874756 0.028408125 0.038856547 0.0942936 0.06737134 -0.19638811 0.03338972 -0.2208187
-0.18587518 -0.0044412483 0.055641923 -0.063544266 -0.20148808 -0.09127702 -0.2374364 -0.30773464
-0.18060906 -0.20571043 -0.21750249 -0.25467002 0.14467618 -0.05889357 -0.051489502 -0.12805752
0.19362186 -0.1048272 0.047606535 0.03190995 -0.2655416 -0.2986739 0.042675693 0.09398378
-0.15718271 -0.014277333 -0.027637446 0.05729388 0.015450471 0.051288057 0.09483039 -0.038395237
0.08562976 -0.05884649 -0.078064956 -0.2280707 0.116979234 -0.259635 -0.22560465 -0.035934146
-0.11401029 0.0019348933 0.19383863 0.14780985 0.03663325 0.022763576 -0.10122168 0.19522333
-0.036050953 -0.029069394 0.14471513 0.06762289 -0.15545969 -0.008172893 0.030849665 0.08259539
-0.104367845 -0.08373979 -0.020921173 -0.12521458 -0.19613044 0.12493238 0.0021955213 0.0777747
0.05995577 -0.15206037 0.05582763 -0.16463776 0.055194695 -0.09573842 -0.15392889 -0.10300491
-0.16225548 0.14300936 -0.083546415 -0.03945733 -0.096659295 0.13700812 -0.23849605 -0.07487914
-0.09513008 0.18560232 -0.19579129 0.065487616 0.086864844 -0.005092147 0.19637908 -0.005937825
00000000: 16a2 a7bd 71ed 653d 6d61 393e fe9d 41be
00000010: 7000 473e f80f 663d 7bef 30be 2981 20be
00000020: 1cf3 a9be 89a5 2bbe f1cb bfbe dab7 8e3d
00000030: 9e4c 1abe 2eaf 623b ed96 8dbe a3a1 e1bb
00000040: 9673 183d c483 923d f33f 34be e907 68be
00000050: 3c74 12bc 8084 533d 3730 7d3d ac31 f93d
00000060: 6a70 013d e3e1 28be 0c60 453c c157 b13d
00000070: 0171 d43d c361 d83c d6c8 db3d 5099 0a3e
00000080: 9a09 373e 28b8 e83c 0b28 1f3d 011d c13d
00000090: fcf9 893d f719 49be a9c3 083d 4c1e 62be
000000a0: 1056 3ebe e487 91bb c9e8 633d 7f23 82bd
000000b0: e452 4ebe 72ef babd 8722 73be 658f 9dbe
000000c0: 95f1 38be c1a5 52be f9b8 5ebe 1c64 82be
000000d0: fe25 143e 623a 71bd a8e6 52bd 8321 03be
000000e0: cf44 463e a5af d6bd 12ff 423d 02b4 023d
000000f0: 12f5 87be c9eb 98be b5cc 2e3d 917a c03d
00000100: 81f4 20be 7aeb 69bc ed67 e2bc fdac 6a3d
00000110: f923 7d3c 6d13 523d 6f36 c23d 5344 1dbd
00000120: a85e af3d 0409 71bd 85e0 9fbd 5e8b 69be
00000130: cf92 ef3d e1ee 84be e804 67be af2f 13bd
00000140: 3a7e e9bd 3f9c fd3a a27d 463e 775b 173e
00000150: bf0c 163d ae7a ba3c 504d cfbd a0e8 473e
00000160: 2aaa 13bd f022 eebc 3430 143e df7d 8a3d
00000170: d330 1fbe 99e7 05bc 70b8 fc3c c627 a93d
00000180: cfbe d5bd c47f abbd e162 abbc 4038 00be
00000190: 6bd6 48be 8cdc ff3d bce2 0f3b 5848 9f3d
000001a0: 2e94 753d b7b5 1bbe 83ab 643d cd96 28be
000001b0: d513 623d 8112 c4bd 899f 1dbe 3df4 d2bd
000001c0: 4d26 26be 0c71 123e 621a abbd 029e 21bd
000001d0: 4ff5 c5bd db4b 0c3e 4f38 74be 3c5a 99bd
000001e0: 8fd3 c2bd 890e 3e3e 837d 48be 5f1e 863d
000001f0: 32e6 b13d 06dc a6bb 9917 493e 1692 c2bb

encoder.3.weight f4 [64, 128]
0.01864205 -0.014133901 0.020769134 0.11956775 0.028861178 0.000454805 -0.01921503 -0.024236213
0.0701046 -0.00030903757 0.013641164 0.015617874 0.01761306 0.009242634 0.06485581 0.03832016
0.0012918939 0.02567129 -0.025682507 0.0005044519 0.0016472527 -0.009128334 -0.0035173267 -0.0007997204
-0.0132474 0.10861222 -0.007951428 0.0066197496 0.036043134 -0.024241704 0.045497347 -0.0005393024
0.03099654 -0.0017468312 -0.0053699794 0.04125382 0.0042796675 0.00030280827 -0.005426611 -0.026709555
0.12830193 0.013560497 0.026916847 -0.01351361 0.03258855 0.0137674045 0.117026955 0.06795704
-0.018048521 -0.014127781 0.05236921 0.015804274 0.0022915802 0.014461051 0.023946654 -0.018059988
0.033958483 -0.010595993 0.022058332 0.005747008 0.00018326237 0.029736904 0.0039745974 0.002610339
-0.008722505 0.037599508 0.020264816 0.0020567265 0.0007694786 0.0297887 0.037383784 0.008477191
-0.0012576067 0.0036320663 -0.0068670227 0.0010921041 -0.004813961 -0.032514036 0.118090495 0.021746634
0.0138051035 -0.0019005715 0.025273185 -0.012177136 0.019273201 -0.0061067715 0.013157817 0.023805583
0.017125053 0.026057012 0.032760423 -0.0041342117 0.10558213 -0.018470274 0.023107138 -0.0015604488
0.017252663 -0.014133933 0.028017567 -0.01698055 0.10446008 -0.00029038938 0.005864154 -0.0054307287
0.024392234 -0.011665227 -0.0066783414 0.0058202045 0.017509509 0.0031020998 0.0037669109 0.007849708
-0.003593308 0.029398669 -0.014630831 -0.004699946 0.02223816 -0.0059709507 0.117742166 0.005555857
0.0036012803 -0.0040622614 -0.039052434 -0.009818642 0.045477513 0.015376106 0.03885656 0.019354893
-0.020783046 -0.017422881 0.12483709 -0.042826034 0.095682435 -0.0062384563 -0.026648771 -0.0047326228
-0.05883495 -0.020773651 -0.052731376 0.074883826 0.0019564976 0.011449011 -0.04170089 0.06661843
0.00015061618 0.051290236 -0.026907343 0.004338472 0.0038324378 -0.0033254593 0.043605853 0.008334601
-0.0005415478 -0.001289205 0.0019233971 0.043314695 0.0890786 -0.020764733 0.10472608 -0.011683119
0.121994436 -0.013476201 0.0043624276 0.09128873 0.042711664 0.00013536084 -0.014343725 -0.020182673
-0.03766188 0.025924347 0.07753788 0.03325892 0.0565232 0.025539154 -0.05252435 -0.031095037
-0.010908234 -0.011495012 0.08627083 -0.024821531 0.0035234208 0.03209062 0.014078416 -0.014584353
0.11284343 0.0048262477 0.0028343599 -0.0031880008 0.0040148115 0.009092365 0.00096009544 -0.0018479986
-0.023401305 0.09367012 0.041259486 0.010549818 -0.01164831 0.10589685 0.1143099 -0.0029657807
0.045252267 -0.018895252 0.022342227 -0.0009812888 -0.04543365 -0.023328528 -0.05921805 0.023725761
0.012468164 0.045413762 0.10400992 -0.013501984 0.004362451 -0.009141907 -0.031618167 0.104027
0.022589695 0.039005943 0.12975438 0.05541486 -0.02715881 -0.020329263 0.06546195 0.0007570927
-0.03108534 -0.054321468 0.05832315 -0.0076368297 -0.041680824 0.0027056762 0.0388477 0.043545138
0.0763135 -0.023260739 -0.014992183 -0.02652221 0.048262864 -0.027021993 -0.010489133 0.0075864205
-0.038804766 0.10943373 -0.045481857 0.0072525367 -0.012468752 0.010465896 -0.053176604 0.02994539
0.041549727 0.0034657423 -0.08298102 0.022022417 0.08281809 0.030675774 0.106074125 0.0169941
00000000: 36b7 983c e191 67bc 0824 aa3c f0df f43d
00000010: 476e ec3c e572 ee39 d768 9dbc 068b c6bc
00000020: 0093 8f3d 5206 a2b9 307f 5f3c 1de2 7f3c
00000030: 4449 903c 6b6e 173c 1fd3 843d 9af5 1c3d
00000040: c454 a93a 994c d23c 1f64 d2bc 323d 043a
00000050: a1e8 d73a 028f 15bc f382 66bb 54a4 51ba
00000060: 9f0b 59bc 1570 de3d b546 02bc 7cea d83b
00000070: f7a1 133d 8a96 c6bc 6d5b 3a3d f95f 0dba
00000080: 75ec fd3c eef5 e4ba a7f6 afbb c4f9 283d
00000090: 743c 8c3b 3dc2 9e39 b6d1 b1bb ffcd dabc
000000a0: 9561 033e d92c 5e3c b880 dc3c 3068 5dbc
000000b0: 927b 053d ae90 613c d4ab ef3d 102d 8b3d
000000c0: 7eda 93bc 3578 67bc 1981 563d f777 813c
000000d0: 562e 163b 0bee 6c3c c62b c43c 8af2 93bc
000000e0: 0d18 0b3d d19a 2dbc adb3 b43c 6651 bc3b
000000f0: 1e2a 4039 cf9a f33c 573d 823b 3912 2b3b
00000100: d6e8 0ebc f101 1a3d 6602 a63c 25ca 063b
00000110: d6b6 493a 6f07 f43c bd1f 193d ebe3 0a3c
00000120: 47d6 a4ba f607 6e3b c304 e1bb ef24 8f3a
00000130: 6fbe 9dbb 702d 05bd 6ed9 f13d ff25 b23c
00000140: cd2e 623c 991c f9ba b609 cf3c 9c82 47bc
00000150: d5e2 9d3c 501b c8bb e293 573c ed03 c33c
00000160: d749 8c3c 8475 d53c cb2f 063d 4878 87bb
00000170: 723b d83d f94e 97bc 2e4b bd3c f987 ccba
00000180: 7555 8d3c 0392 67bc 1985 e53c cb1a 8bbc
00000190: 2bef d53d 673f 98b9 1728 c03b 41f4 b1bb
000001a0: 39d2 c73c 821f 3fbc fdd5 dabb 6ab7 be3b
000001b0: 1a70 8f3c 994c 4b3b 47de 763b 109c 003c
000001c0: b47d 6bbb 7ad5 f03c 27b6 6fbc 0102 9abb
000001d0: cd2c b63c f7a7 c3bb ce22 f13d e80d b63b
000001e0: 7503 6c3b b81c 85bb 72f5 1fbd 5fde 20bc
000001f0: a146 3a3d 10ec 7b3c 0e28 1f3d 278e 9e3c
00000200: 3541 aabc 6eba 8ebc 97aa ff3d 5a6a 2fbd
00000210: 27f5 c33d f76b ccbb 864e dabc 1e14 9bbb
00000220: ebfc 70bd 812d aabc dbfc 57bd b15c 993d
00000230: 9538 003b a294 3b3c 8dce 2abd 3e6f 883d
00000240: b9ee 1d39 b615 523d ca6c dcbc be29 8e3b
00000250: a329 7b3b f3ef 59bb 0d9c 323d da8d 083c
00000260: a8f6 0dba 8bfa a8ba 7f1a fc3a c06a 313d
00000270: d76e b63d cd1a aabc a17a d63d 8e6a 3fbc
00000280: 38d8 f93d 49cb 5cbc b2f2 8e3b 96f5 ba3d
00000290: 6df2 2e3d a6ef 0d39 f101 6bbc 2256 a5bc
000002a0: 5843 1abd 4c5f d43c 2ecc 9e3d 813a 083d
000002b0: df84 673d 7d37 d13c c623 57bd 05bb febc
000002c0: 73b8 32bc 9355 3cbc c3ae b03d 8656 cbbc
000002d0: 31e9 663b 7471 033d 28a9 663c 36f3 6ebc
000002e0: 751a e73d 8025 9e3b abc0 393b c7ed 50bb
000002f0: ae8e 833b 25f8 143c eaae 7b3a 8b38 f2ba
00000300: 18b4 bfbc 1fd6 bf3d b5ff 283d 25d9 2c3c
00000310: 8ed8 3ebc 73e0 d83d 4f1b ea3d 8b5d 42bb
00000320: 715a 393d 37ca 9abc 0c07 b73c 979e 80ba
00000330: a318 3abd 781b bfbc a08e 72bd 875c c23c
00000340: 4547 4c3c c803 3a3d 2703 d53d 6d37 5dbc
00000350: e4f2 8e3b f0c7 15bc 0d82 01bd 1c0c d53d
00000360: 060e b93c b2c4 1f3d 55de 043e b1fa 623d
00000370: 277c debc 8e89 a6bc ea10 863d a277 463a
00000380: afa6 febc 3080 5ebd 41e4 6e3d 5f3e fabb
00000390: 83b9 2abd b751 313b c41e 1f3d 635c 323d
000003a0: 414a 9c3d 4e8d bebc c6a1 75bc 1b45 d9bc
000003b0: 48af 453d 3a5d ddbc 9dda 2bbc 8297 f83b
000003c0: bff1 1ebd cb1e e03d 2f4b 3abd b0a6 ed3b
000003d0: bd49 4cbc 2679 2b3c b6cf 59bd 0950 f53c
000003e0: 0c30 2a3d 8221 633b f4f1 a9bd 5b68 b43c
000003f0: 889c a93d c34b fb3c 643d d93d 3637 8b3c

encoder.3.bias f4 [64]
0.071546935 0.10968207 -0.00032505448 -0.1707386 0.16966686 0.14707947 0.13127312 0.01880347
0.0985727 0.000903614 0.30893782 0.44990376 -0.040245015 -0.13304494 0.09403589 0.1995948
0.08295085 0.15972662 0.12302958 -0.008445471 0.46477324 0.059883125 -0.10939204 -0.18749042
0.035436492 0.19214116 -0.111972384 0.118748665 0.048113238 0.052859668 0.11038713 0.050347596
0.05859123 0.013897572 -0.0051441076 0.032665115 -0.0030846423 0.14983445 -0.014525193 0.1050927
0.026313152 0.09562114 0.10793265 0.048765864 0.066220604 -0.016734554 0.34132197 0.13619448
0.05226967 -0.014855603 0.11527654 0.059668805 -0.021381054 0.09112006 0.14572726 0.013624929
0.07765997 0.115754224 0.11247938 0.0378096 0.061641227 0.11705854 -0.15754437 0.11052242
00000000: 3387 923d fea0 e03d 136c aab9 19d6 2ebe
00000010: 26bd 2d3e 009c 163e 766c 063e bc09 9a3c
00000020: 7ce0 c93d 82e0 6c3a 192d 9e3e c959 e63e
00000030: f5d7 24bd ef3c 08be e495 c03d 9462 4c3e
00000040: 23e2 a93d 608f 233e eff6 fb3d df5e 0abc
00000050: c2f6 ed3e 0248 753d ef08 e0bd 7dfd 3fbe
00000060: db25 113d a7c0 443e c751 e5bd 8032 f33d
00000070: 6312 453d 6183 583d a612 e23d 4839 4e3d
00000080: 5cfd 6f3d a4b2 633c e78f a8bb dbcb 053d
00000090: b627 4abb 346e 193e 13fb 6dbc d73a d73d
000000a0: ae8e d73c 04d5 c33d cb0b dd3d b7be 473d
000000b0: ab9e 873d e716 89bc c1c1 ae3e 9176 0b3e
000000c0: b918 563d ea64 73bc 1b16 ec3d 4767 743d
000000d0: 5227 afbc 279d ba3d 8739 153e 183b 5f3c
000000e0: 310c 9f3d 8d10 ed3d 975b e63d 3dde 1a3d
000000f0: 837b 7c3d 63bc ef3d 5053 21be 9459 e23d

classifier.0.weight f4 [32, 64]
0.07348133 0.17707416 0.01842303 -0.025719928 0.16231254 0.13308482 -0.051542398 0.012324984
0.117391944 -0.053881284 -0.07134877 -0.059531964 -0.080499806 0.033190362 0.07019622 -0.060373463
0.012064735 -0.10509649 0.16518672 -0.08846616 -0.070516326 0.065214135 -0.06489119 -0.0713929
0.11196106 -0.10917699 0.10503605 0.1239384 -0.1383613 0.08498084 0.07990859 0.077978946
0.06641125 -0.14988998 -0.08746044 0.053155184 -0.0638832 0.11433472 -0.039459147 0.13119139
0.026104739 0.07766463 0.06064625 0.09446488 0.10658835 -0.06853706 -0.09657097 -0.031506307
0.093114376 0.021051465 -0.0057628527 -0.11134074 0.06748596 0.17128985 0.04494181 0.014602718
0.023781773 -0.11224293 0.09585766 -0.0061344556 0.06438038 0.06986053 0.05044334 -0.05843078
0.013822578 0.04906391 0.025411017 0.010770904 -0.34429345 -0.29719925 0.09694113 -0.0033544865
-0.13194017 0.087947816 0.13627487 0.07227164 0.079235874 -0.026010549 -0.14770149 0.12161756
0.018216098 0.12005337 0.08927611 0.023537274 0.13046262 0.071455285 -0.06878226 -0.22917037
0.0844815 0.03820695 -0.12074588 0.00293481 0.31435856 -0.14551476 -0.06679825 0.006867459
-0.10535724 0.13833037 0.173808 -0.12757565 0.15053587 -0.27387682 0.0723426 0.08671474
-0.114568636 0.09233544 0.05126835 -0.20723845 0.09201031 0.07086004 0.07638063 0.059269577
0.08843619 0.09120154 0.027199114 0.13789596 0.15033379 0.07715843 -0.20835876 0.08818863
-0.0564176 0.21685068 0.10107915 0.0077416142 0.06859937 0.07133938 -0.09578789 0.1086172
0.07883324 0.18426242 0.02564144 -0.023289379 0.17362061 0.14208992 -0.046043746 0.017010245
0.12147977 -0.06060185 -0.06533626 -0.07409493 -0.0873492 0.0303084 0.07334997 -0.050880786
0.020317217 -0.090172365 0.17642358 -0.10711371 -0.08659647 0.0670682 -0.06566641 -0.086632185
0.10878391 -0.108359404 0.101118475 0.13427837 -0.1408071 0.08764431 0.08052754 0.07916456
0.07128813 -0.16248745 -0.09132675 0.056886513 -0.069538206 0.1260412 -0.03075052 0.14426087
0.012981741 0.08374406 0.07528813 0.099548385 0.10620745 -0.08135009 -0.086892664 -0.027933294
0.09340083 0.025800098 -0.0011249249 -0.12210061 0.06966999 0.17872232 0.05561711 0.018485634
0.025984215 -0.11282234 0.102932036 -0.003457264 0.06686946 0.07723058 0.04700984 -0.06462475
0.074728824 0.17530215 0.013338952 -0.015746638 0.1811977 0.14268228 -0.050321564 0.014687268
0.11970456 -0.056518033 -0.06253479 -0.06551553 -0.08262067 0.03235626 0.06761244 -0.054490123
0.018285036 -0.09889524 0.16832316 -0.0986312 -0.07119223 0.060662635 -0.058467686 -0.0848992
0.09481296 -0.10154733 0.11375865 0.12164271 -0.14257418 0.087282814 0.067219324 0.08006849
0.065264426 -0.15604027 -0.09215757 0.054816153 -0.0669994 0.13032381 -0.035304014 0.13462482
0.031183317 0.0757036 0.061741523 0.09404744 0.09851514 -0.0718384 -0.08856676 -0.029134784
0.08628952 0.026849885 -0.0040485305 -0.116581984 0.06578788 0.17008393 0.055447392 0.020166827
0.018648617 -0.11439478 0.09283009 -0.0027657577 0.060684647 0.07081 0.049088653 -0.0597298
00000000: 617d 963d ee52 353e e5eb 963c 99b2 d2bc
00000010: 4235 263e 6347 083e 1f1e 53bd bbee 493c
00000020: 306b f03d 9fb2 5cbd 4e1f 92bd cad7 73bd
00000030: 15dd a4bd 9ef2 073d 09c3 8f3d 2a4a 77bd
00000040: 2bab 453c d43c d7bd b526 293e bf2d b5bd
00000050: dd6a 90bd fd8e 853d ace5 84bd 7136 92bd
00000060: d74b e53d 3098 dfbd 241d d73d 6ad3 fd3d
00000070: 96ae 0dbe 6f0a ae3d 1da7 a33d 6db3 9f3d
00000080: 9f02 883d c27c 19be 761e b3bd 40b9 593d
00000090: 32d5 82bd 5228 ea3d ea9f 21bd 0957 063e
000000a0: 9bd9 d53c a20e 9f3d 3468 783d ce76 c13d
000000b0: fe4a da3d 285d 8cbd 00c7 c5bd c20c 01bd
000000c0: c0b2 be3d 1f74 ac3c 50d6 bcbb 9d06 e4bd
000000d0: 1436 8a3d 9b66 2f3e e714 383d 3d40 6f3c
000000e0: fed1 c23c 9fdf e5bd 0551 c43d 8b03 c9bb
000000f0: dcd9 833d 0a13 8f3d ad9d 4e3d 1d55 6fbd
00000100: 1878 623c 3df7 483d c42a d03c 7278 303c
00000110: 3b47 b0be 802a 98be 1289 c63d f2d6 5bbb
00000120: 531b 07be fc1d b43d a48b 0b3e 2703 943d
00000130: 6b46 a23d 1314 d5bc 0f3f 17be a112 f93d
00000140: ed39 953c 8bde f53d 65d6 b63d 3ed1 c03c
00000150: fe97 053e 2657 923d b7dd 8cbd a3ab 6abe
00000160: a304 ad3d e47e 1c3d 9e49 f7bd f155 403b
00000170: 9bf3 a03e d201 15be 85cd 88bd 6c08 e13b
00000180: 89c5 d7bd 7aa6 0d3e b9fa 313e 31a3 02be
00000190: 1326 1a3e 9539 8cbe 5b28 943d 7f97 b13d
000001a0: f6a2 eabd 5d1a bd3d c3fe 513d 5136 54be
000001b0: e76f bc3d 121f 913d 736d 9c3d a8c4 723d
000001c0: 081e b53d dfc7 ba3d add0 de3c 9934 0d3e
000001d0: 1af1 193e 3d05 9e3d 005c 55be 3e9c b43d
000001e0: 2416 67bd 1b0e 5e3e 9602 cf3d 5ead fd3b
000001f0: d47d 8c3d 621a 923d 712c c4bd b272 de3d
00000200: 5273 a13d 4aaf 3c3e ff0d d23c 5ec9 bebc
00000210: 9ac9 313e 0580 113e 5e98 3cbd 1259 8b3c
00000220: 63ca f83d a539 78bd 04cf 85bd 15bf 97bd
00000230: 23e4 b2bd 5249 f83c 8238 963d 5f68 50bd
00000240: 4b70 a63c 4aac b8bd 62a8 343e 6f5e dbbd
00000250: 7d59 b1bd 0d5b 893d 1c7c 86bd 376c b1bd
00000260: 19ca de3d 89eb ddbd 3417 cf3d 4580 093e
00000270: bd2f 10be dc7e b33d 9feb a43d 0721 a23d
00000280: 83ff 913d 1c63 26be 8509 bbbd d501 693d
00000290: 0c6a 8ebd f210 013e 84e8 fbbc 1fb9 133e
000002a0: 5eb1 543c 0182 ab3d aa30 9a3d 06e0 cb3d
000002b0: 4b83 d93d e09a a6bd c8f4 b1bd 5dd4 e4bc
000002c0: ef48 bf3d ba5a d33c 3772 93ba e20f fabd
000002d0: 24af 8e3d fc02 373e c4ce 633d 2f6f 973c
000002e0: d9dc d43c 660f e7bd 08ce d23d 4493 62bb
000002f0: dbf2 883d 112b 9e3d 648d 403d fb59 84bd
00000300: 6d0b 993d 6882 333e 9f8b 5a3c 18ff 80bc
00000310: e48b 393e 4e1b 123e fc1d 4ebd dea2 703c
00000320: aa27 f53d 747f 67bd 3d12 80bd 022d 86bd
00000330: 0735 a9bd ff87 043d 6478 8a3d 0931 5fbd
00000340: 80ca 953c 9689 cabd e85c 2c3e 28ff c9bd
00000350: 3bcd 91bd 6279 783d d07b 6fbd a2df adbd
00000360: 4c2d c23d 0cf8 cfbd 4cfa e83d d01f f93d
00000370: f7fe 11be 55c1 b23d 49aa 893d f3fa a33d
00000380: 5ba9 853d 05c9 1fbe 1cbd bcbd e786 603d
00000390: fb36 89bd 9b73 053e f19a 10bd 17db 093e
000003a0: 2874 ff3c 7d0a 9b3d aee4 7c3d f29b c03d
000003b0: 4ec2 c93d 0320 93bd 7d62 b5bd 12ac eebc
000003c0: 8fb8 b03d 4af4 db3c 89a9 84bb 89c2 eebd
000003d0: ccbb 863d 7b2a 2e3e ce1c 633d e734 a53c
000003e0: fcc4 983c cf47 eabd b41d be3d b741 35bb
000003f0: 7790 783d d504 913d 2f11 493d 3ca7 74bd

classifier.0.bias f4 [32]
0.02995436 0.038078804 0.050663196 0.043689415 0.11365078 0.0821079 0.06440963 0.066698596
0.0892043 0.0775325 0.17745145 0.07406433 0.039771717 0.051582195 0.015028902 0.06578919
0.03699648 0.059417274 0.045029297 0.04706622 0.0365966 0.08377825 0.07744928 0.12507898
0.10411065 0.04497675 0.0715849 0.036955766 0.1255022 0.009794032 0.056667533 -0.0068621607
00000000: d962 f53c 85f8 1b3d 3684 4f3d acf3 323d
00000010: bdc1 e83d 3028 a83d 32e9 833d 4699 883d
00000020: beb0 b63d 5cc9 9e3d d5b5 353e 0aaf 973d
00000030: abe7 223d da47 533d c93b 763c 7cbc 863d
00000040: 9f89 173d 875f 733d a470 383d 82c8 403d
00000050: 51e6 153d ee93 ab3d ba9d 9e3d b414 003e
00000060: f737 d53d 8a39 383d 1b9b 923d ee5e 173d
00000070: a683 003e 2677 203c 371c 683d fadb e0bb

classifier.3.weight f4 [5, 32]
-0.35880345 0.1887094 -0.37997165 -0.332715 -1.9978135 0.23796943 -0.3538469 0.14443864
-1.8394395 0.19461222 0.02509645 0.15981951 0.214582 -0.4127839 0.20437697 0.16205433
-0.3792376 -0.32045135 0.15500508 -0.3670527 -0.36325905 0.23875506 0.15870559 -2.000528
-1.9056511 0.080861434 0.17210878 0.22119263 -1.9142575 0.08984526 0.11396908 -0.10669662
-0.26618862 -0.38450763 -0.2705701 -0.24592692 0.26655328 -0.3736548 -0.24845476 -0.5348883
0.44396996 0.30482778 0.077309586 -0.53207403 -0.41321456 -0.29288676 -0.3787206 -0.53799564
-0.2976286 -0.24795261 -0.5510087 -0.2924126 -0.2955449 0.3400758 -0.53872395 0.20009325
0.3972062 0.121303126 -0.54455036 -0.38941723 0.4067524 0.22432734 -0.5620852 0.40795824
-0.3172803 0.18676718 -0.3456369 -0.32224977 0.22110659 0.23635194 -0.31677434 0.14534916
0.41077825 0.20344545 0.04014675 0.1514463 0.20865782 -0.3810303 0.20958646 0.14849375
-0.37508157 -0.2942272 0.15037598 -0.3842178 -0.3764824 0.25015265 0.15237533 0.15807422
0.3702873 0.08275505 0.16348462 0.22764231 0.3800092 0.10045934 0.10938884 -0.294292
0.2135625 -0.7703685 0.19318564 0.26217425 0.25484604 -0.66292197 0.25198027 0.08249349
0.4222591 -0.74549013 -0.03236127 0.09912441 -0.7398401 0.14427745 -0.7336818 0.088064775
0.15912917 0.28642696 0.10239636 0.15964532 0.16728882 -0.7176205 0.095470086 0.19127469
0.3802288 0.063090205 0.10087114 -0.7422867 0.39197883 -0.8745569 0.060233213 -0.12963393
0.21462253 0.20739847 0.1964716 0.26331675 0.23035859 -0.40070757 0.25604582 -0.6226316
0.024403201 -0.4406683 -0.6109566 -0.63244885 0.20445518 0.14639181 0.22333208 -0.62946075
0.15875722 0.29089296 -0.6319662 0.15830532 0.16055858 -0.4386702 -0.6414797 0.1701262
0.04669108 -0.70791125 -0.62316823 0.20225352 0.08710136 0.122682184 -0.64924073 0.39476037
00000000: 16b5 b7be 093d 413e a58b c2be 9f59 aabe
00000010: 5ab8 ffbf 42ae 733e 6c2b b5be b9e7 133e
00000020: c172 ebbf 6d48 473e 1297 cd3c baa7 233e
00000030: 62bb 5b3e 6958 d3be 3248 513e 92f1 253e
00000040: 6e2b c2be 3312 a4be a7b9 1e3e 55ee bbbe
00000050: 17fd b9be 357c 743e b883 223e a708 00c0
00000060: 60ec f3bf ae9a a53d 493d 303e 5280 623e
00000070: 6406 f5bf cb00 b83d 9f68 e93d c283 dabd
00000080: e049 88be 2fde c4be 2a88 8abe 44d4 7bbe
00000090: ac79 883e af4f bfbe ed6a 7ebe 71ee 08bf
000000a0: 0850 e33e 6312 9c3e 7d54 9e3d 0136 08bf
000000b0: dc90 d3be 41f5 95be abe7 c1be 15ba 09bf
000000c0: c762 98be 4ae7 7dbe e80e 0dbf 1bb7 95be
000000d0: a951 97be 6a1e ae3e d0e9 09bf 3fe5 4c3e
000000e0: 9c5e cb3e c66d f83d a767 0bbf b261 c7be
000000f0: da41 d03e 11b6 653e d1e4 0fbf e7df d03e
00000100: 9072 a2be e53f 3f3e 52f7 b0be ecfd a4be
00000110: c469 623e 3e06 723e 3f30 a2be 69d6 143e
00000120: 8751 d23e 0154 503e eb70 243d bd14 1b3e
00000130: 65aa 553e 6716 c3be d59d 563e bf0e 183e
00000140: b10a c0be f3a4 96be 29fc 193e 32b8 c4be
00000150: 4dc2 c0be 0214 803e 4708 1c3e 35de 213e
00000160: 4c96 bd3e 7b7b a93d 8368 273e 111b 693e
00000170: 9190 c23e a0bd cd3d 4207 e03d 71ad 96be
00000180: 21b0 5a3e df36 45bf 75d2 453e b43b 863e
00000190: 2e7b 823e 41b5 29bf 8f03 813e 59f2 a83d
000001a0: 5832 d83e 71d8 3ebf 408d 04bd bd01 cb3d
000001b0: 2966 3dbf 78bd 133e 92d2 3bbf 4e5b b43d
000001c0: c2f2 223e 8ea6 923e 2fb5 d13d 107a 233e
000001d0: c34d 2b3e fab5 37bf d285 c33d 83dd 433e
000001e0: 59ad c23e 7035 813d 8795 ce3d 8006 3ebf
000001f0: 73b1 c83e f6e2 5fbf 1ab7 763d c2be 04be
00000200: 02c6 5b3e 4460 543e da2f 493e 74d1 863e
00000210: 1fe3 6b3e 8b29 cdbe 7018 833e c964 1fbf
00000220: 39e9 c73c 479f e1be a767 1cbf 2be8 21bf
00000230: b35c 513e bce7 153e 2ab1 643e 5724 21bf
00000240: 4191 223e ecef 943e 89c8 21bf ca1a 223e
00000250: 7869 243e 6199 e0be 0338 24bf 9035 2e3e
00000260: 253f 3f3d ac39 35bf f487 1fbf 8c1b 4f3e
00000270: 3362 b23d cc40 fb3d a434 26bf 081e ca3e

classifier.3.bias f4 [5]
0.5046519 -0.68284655 -0.17717911 -0.001795349 0.038829815
00000000: de30 013f 08cf 2ebf 716e 35be ea51 ebba
00000010: 030c 1f3d
